…
2     m_happy  SAVEE  ...  -4.142285   0.820214
3   m_disgust  SAVEE  ...  -5.378167  -2.130258
4   m_disgust  SAVEE  ... -22.951792 -21.907616

[5 rows x 219 columns]
(1440, 216)
['f_angry' 'f_disgust' 'f_fear' 'f_happy' 'f_neutral' 'f_sad' 'f_surprise'
 'm_angry' 'm_disgust' 'm_fear' 'm_happy' 'm_neutral' 'm_sad' 'm_surprise']
hy.cheng==X_train.shape:  (1440, 216, 1)
Model: "sequential"
_________________________________________________________________
 Layer (type)                Output Shape              Param #   
=================================================================
 conv1d (Conv1D)             (None, 216, 256)          2304      
                                                                 
 activation (Activation)     (None, 216, 256)          0         
                                                                 
 conv1d_1 (Conv1D)           (None, 216, 256)          524544    
                                                                 
 batch_normalization (BatchN  (None, 216, 256)         1024      
 ormalization)                                                   
                                                                 
 activation_1 (Activation)   (None, 216, 256)          0         
                                                                 
 dropout (Dropout)           (None, 216, 256)          0         
                                                                 
 max_pooling1d (MaxPooling1D  (None, 27, 256)          0         
 )                                                               
                                                                 
 conv1d_2 (Conv1D)           (None, 27, 128)           262272    
                                                                 
 activation_2 (Activation)   (None, 27, 128)           0         
                                                                 
 conv1d_3 (Conv1D)           (None, 27, 128)           131200    
                                                                 
 activation_3 (Activation)   (None, 27, 128)           0         
                                                                 
 conv1d_4 (Conv1D)           (None, 27, 128)           131200    
                                                                 
 activation_4 (Activation)   (None, 27, 128)           0         
                                                                 
 conv1d_5 (Conv1D)           (None, 27, 128)           131200    
                                                                 
 batch_normalization_1 (Batc  (None, 27, 128)          512       
 hNormalization)                                                 
                                                                 
 activation_5 (Activation)   (None, 27, 128)           0         
                                                                 
 dropout_1 (Dropout)         (None, 27, 128)           0         
                                                                 
 max_pooling1d_1 (MaxPooling  (None, 3, 128)           0         
 1D)                                                             
                                                                 
 conv1d_6 (Conv1D)           (None, 3, 64)             65600     
                                                                 
 activation_6 (Activation)   (None, 3, 64)             0         
                                                                 
 conv1d_7 (Conv1D)           (None, 3, 64)             32832     
                                                                 
 activation_7 (Activation)   (None, 3, 64)             0         
                                                                 
 flatten (Flatten)           (None, 192)               0         
                                                                 
 dense (Dense)               (None, 14)                2702      
                                                                 
 activation_8 (Activation)   (None, 14)                0         
                                                                 
=================================================================
Total params: 1,285,390
Trainable params: 1,284,622
Non-trainable params: 768
_________________________________________________________________
Epoch 1/100
 1/90 [..............................] - ETA: 1:31 - loss: 2.8010 - accuracy: 0.0000e+00
…
